Classification/model_classification.pkl (torch, 6615 bytes, 6 tensors)

hid1.weight f4 [26, 13]
0	0xbf3f74d4	-0.7478764
1	0xbfa025a5	-1.2511488
2	0xbfa3e447	-1.280404
3	0x3f9a7f97	1.2070187
4	0xbe47e1a9	-0.19519676
5	0xbe6eaedb	-0.2330889
6	0x3f57a295	0.84232455
7	0x3cc4bcd9	0.02401583
8	0x3c9fbd7b	0.019499531
9	0xbca724b2	-0.02040324
10	0x3f2520a0	0.64502907
11	0xbd8a1748	-0.06742722
12	0xbfc35374	-1.5259843
13	0xbf3f8677	-0.7481455
14	0xbf6363e6	-0.8882431
15	0xbf930d86	-1.1488502
16	0x3fc009b6	1.5002964
17	0xbe3d7d2a	-0.18504778
18	0x3da44652	0.08021225
19	0x3c757893	0.01498236
20	0xbe99d617	-0.3004615
21	0x3ec05678	0.3756597
22	0x3e4d6a17	0.20060001
23	0x3e8009f2	0.25007588
24	0x3e835472	0.25650364
25	0xbfb6802d	-1.4257866
26	0x3f2480f5	0.6425927
27	0x3f9913d8	1.1959181
28	0x3f39c117	0.72560257
29	0xbf9e2580	-1.2355194
30	0xbda551ec	-0.08072266
31	0x3f06f0ca	0.52711165
32	0xbeb350c2	-0.3502255
33	0xbdea79de	-0.114490256
34	0x3eaaeefa	0.3338545
35	0xbeabcdf1	-0.33555558
36	0xbf1fdc54	-0.6244557
37	0x3e85f27c	0.26161563
38	0x3fba1092	1.4536307
39	0x3d9e8c64	0.07741621
40	0x3e0f6fd1	0.14007498
41	0xbf022384	-0.5083544
42	0xbe317e25	-0.17333277
43	0xbe386ea8	-0.18010962
44	0x3d0528c8	0.032509595
45	0x3e34829e	0.17627952
46	0xbb74a8c1	-0.003733203
47	0xbce77bd6	-0.028257292
48	0xbe6990c5	-0.22809131
49	0x3e625b2c	0.22105092
50	0x3e7d03b4	0.24708444
51	0xbec9fb47	-0.39449522
52	0x3ea9ac62	0.3313933
53	0xbe273840	-0.16330051
54	0x3d912df0	0.0708884
55	0x3e566fc6	0.20941076
56	0x3b85f179	0.0040876237
57	0x3e8bbb2c	0.27291238
58	0xbe552df2	-0.20818308
59	0xbd4ab827	-0.049492028
60	0x3db47731	0.088117965
61	0x3e2fdbc8	0.17173684
62	0x3e2cdf7f	0.16882132
63	0xbdc8546f	-0.097817294
64	0x3d5c6a11	0.05381209
65	0x3d86528d	0.06558714
66	0xbde8e25e	-0.11371301
67	0xbe28024e	-0.16407129
68	0x3f5a967d	0.85385877
69	0xbe2940cc	-0.16528624
70	0x3f067822	0.5252706
71	0xc01349a5	-2.30137
72	0xbedfdb3a	-0.43721944
73	0xbed9db16	-0.42549962
74	0x3fa7c894	1.3108087
75	0xbfaeb8c0	-1.3650131
76	0xbfad45da	-1.3536942
77	0xbe930e78	-0.28721976
78	0x3f433e3a	0.76266825
79	0x3f87662d	1.0578057
80	0x3fdec91b	1.7405123
81	0xc0127683	-2.2884834
82	0x3e73edbd	0.23821159
83	0x3e6bafe6	0.23016319
84	0x3db7da8f	0.089772336
85	0xbe5b25e7	-0.21401177
86	0xbe603118	-0.21893728
87	0xbf2ea38c	-0.682183
88	0xbe10700f	-0.14105247
89	0x3e8d6c04	0.27621472
90	0x3fe88943	1.8166889
91	0xbf1c3807	-0.6102299
92	0xbf83f6d4	-1.0309701
93	0xbf4396da	-0.76402056
94	0x3f1ff586	0.62484014
95	0x3e390063	0.18066554
96	0xbf161d26	-0.58638227
97	0x3f97d199	1.1860839
98	0x3e484991	0.19559313
99	0xbd7455b4	-0.059652045
100	0xbd44224d	-0.047884274
101	0x3f5577ef	0.8338613
102	0x3dec5f2c	0.1154159
103	0xbf6ebbd1	-0.93255335
104	0xbb35413e	-0.0027657296
105	0x3d99417a	0.07483192
106	0x3e03ec45	0.12883098
107	0xbe9d2afd	-0.3069686
108	0xbe8235f1	-0.2543178
109	0xbcf83720	-0.030299723
110	0x3f18d478	0.596992
111	0x3ea15af7	0.31514713
112	0x3b6b697f	0.0035921035
113	0xbf3f8688	-0.74814653
114	0x3f470b3f	0.77751535
115	0x3ee1170f	0.43962905
116	0x3e173788	0.14767277
117	0x3ee2c825	0.44293323
118	0x3f5333f9	0.8250118
119	0x3f5e9cf8	0.86958265
120	0xbfba1af3	-1.4539474
121	0x3eeb50c9	0.45960072
122	0x3e4dcb2d	0.20097037
123	0x3e4558b2	0.19272116
124	0x3e292e12	0.1652148
125	0x3d53991f	0.0516597
126	0xbef22c40	-0.47299385
127	0x3c60be2e	0.013717217
128	0xbdf4f61a	-0.11961003
129	0x3fa0a6e6	1.2550933
130	0xbe93aef9	-0.2884443
131	0xbe25a4d6	-0.16176161
132	0xbf68886a	-0.9083315
133	0x3faab899	1.3337585
134	0xbe80ef64	-0.2518264
135	0x3ec852d7	0.39125702
136	0xbf5dc35b	-0.86626214
137	0xbe23272d	-0.15932913
138	0x3db215b0	0.08695543
139	0x3f0adef9	0.5424648
140	0xbf05b09d	-0.52222615
141	0xbebbd771	-0.36687806
142	0xbeefc58a	-0.46830398
143	0x3dd6f278	0.10495466
144	0x3d7de40d	0.061985064
145	0xbef5e1c3	-0.48023805
146	0x3f1b3b64	0.606375
147	0x3e0cc4df	0.13746975
148	0x3d4ea716	0.050452314
149	0xbf61a23a	-0.88138163
150	0xbcdaa635	-0.026690582
151	0xbe6e1caa	-0.23253122
152	0x3ecca81e	0.39972013
153	0xbf1edb43	-0.62053317
154	0xbf31422c	-0.69241595
155	0x3cd7eddc	0.026358537
156	0x3da06f61	0.07833744
157	0x3f1fad0b	0.6237342
158	0x3e20f304	0.15717703
159	0xbe4d7cb1	-0.20067097
160	0xbeb60edd	-0.35558215
161	0x3e2beb3f	0.16788958
162	0xbf58318d	-0.8445061
163	0xbee9866c	-0.45610368
164	0xbd0ea990	-0.034829676
165	0x3e933804	0.28753674
166	0xbf554ef7	-0.83323616
167	0xbcc78f8d	-0.024360443
168	0x3f1073c1	0.56426626
169	0x3ef3af25	0.47594562
170	0x3ec0796b	0.37592635
171	0x3eb8406e	0.35986656
172	0xbf7ec9b6	-0.99526536
173	0x3d812534	0.06305924
174	0x3ce5a36a	0.028032023
175	0x3fde0281	1.7344514
176	0xbcb3d6bd	-0.021952981
177	0x3de39580	0.11112499
178	0xbf82f4e2	-1.0230982
179	0x3f26397e	0.64931476
180	0x3f3e7ec7	0.74412197
181	0x3f1b032a	0.605517
182	0xbe94ddd6	-0.29075497
183	0xbecec9b4	-0.40388262
184	0xbe603907	-0.21896754
185	0x3ca3edee	0.020010915
186	0xbdd06f1c	-0.101774424
187	0xbc8eca36	-0.017430406
188	0x3cfd0088	0.030884042
189	0xbe6c335f	-0.23066472
190	0xbdb72108	-0.08941847
191	0x3ec47dda	0.38377267
192	0xbdabe770	-0.083937526
193	0xbec36c1c	-0.38168418
194	0xbdb6b384	-0.08920959
195	0xbea26500	-0.31717682
196	0xbbd39986	-0.0064575104
197	0xbedf2694	-0.4358412
198	0xbe1ae9ab	-0.151282
199	0xbe35e1e0	-0.17761946
200	0xbe9f98d3	-0.31171283
201	0x40037cf6	2.054502
202	0x3eb32ba0	0.3499422
203	0x3ec93604	0.39299023
204	0xbfb2aaac	-1.3958335
205	0x3fcf9c48	1.6219568
206	0x3fbe7fef	1.4882792
207	0xbf0092a6	-0.5022377
208	0xbe2d9d69	-0.16954578
209	0xbef01f4b	-0.46898875
210	0xbcb9b093	-0.022667205
211	0xbeb89b46	-0.36055964
212	0x3e8e562b	0.27800116
213	0xbe6557f1	-0.22396828
214	0x3fcd6f8a	1.6049664
215	0x3ed60bf0	0.41805983
216	0xbd388eec	-0.045058176
217	0xbf25b244	-0.64725137
218	0x3f854567	1.0411805
219	0x3e0db44e	0.13838312
220	0xbeac5312	-0.33657128
221	0xbeb00e9c	-0.34386146
222	0xbeeda87c	-0.46417606
223	0xbe70a358	-0.2349981
224	0x3e49094d	0.19632454
225	0xbe69bbd6	-0.2282556
226	0xbdf3538c	-0.1188117
227	0x3e8ddad3	0.27706012
228	0xbe8afb04	-0.27144635
229	0xbe94c7ff	-0.29058835
230	0x3dd3696f	0.10322844
231	0x3e5b7226	0.21430263
232	0x3d831047	0.06399589
233	0xbf1eed1c	-0.6208055
234	0x3e7872f5	0.24262603
235	0x3e87616a	0.2644151
236	0x3e40565a	0.1878294
237	0xbf14565c	-0.57944274
238	0x3e27a411	0.1637118
239	0x3e5e52aa	0.21711221
240	0x3d9fce04	0.07802966
241	0xbe2449f4	-0.16043836
242	0x3ecd06df	0.40044305
243	0xbea557dc	-0.32293594
244	0x3cffa736	0.031207662
245	0x3f01a535	0.5064271
246	0x3f458dea	0.7716967
247	0x3e99a354	0.30007422
248	0x3f90cf75	1.1313311
249	0x3ec7ce9a	0.39024812
250	0xbf0d3f74	-0.55174947
251	0xbdf1b697	-0.118024044
252	0x3ecaf236	0.39637917
253	0xbf996a72	-1.198561
254	0xbf04520a	-0.5168768
255	0x3e8dfd1a	0.27732164

hid1.bias f4 [26]
0	0x3f7759cd	0.966214
1	0x3f2d78fb	0.67762727
2	0xbf58d897	-0.8470549
3	0x3e151c25	0.14561518
4	0xbe123cf8	-0.1428107
5	0x3e22bbca	0.15891948
6	0xbfb75cbd	-1.4325176
7	0x3e9ff9e2	0.31245333
8	0x3e1f18a4	0.15536743
9	0xbf781500	-0.96907043
10	0x3f352050	0.7075243
11	0xbc35e4cd	-0.011101914
12	0x3e1c7ddf	0.15282391
13	0xbf1c007c	-0.6093824
14	0xbd1fb0c7	-0.038986947
15	0x3ecb56f6	0.39714783
16	0x3cffa0d9	0.031204628
17	0x3e4d5de1	0.20055343
18	0xbe948864	-0.29010308
19	0xbe868d20	-0.26279545
20	0x3e9229e9	0.285476
21	0x3e8779cb	0.26460108
22	0xbea33188	-0.31873727
23	0xbf1117ff	-0.5667724
24	0x3fa42892	1.2824881
25	0x3f187247	0.59549373

hid2.weight f4 [26, 26]
0	0x3e8da058	0.27661395
1	0xbdb32f0b	-0.08749207
2	0xbe41396d	-0.18869562
3	0x3d3b48bf	0.045723673
4	0xbe14b9b6	-0.14523968
5	0xbe7bc7f9	-0.24588002
6	0xbdeed867	-0.11662369
7	0x3ece20da	0.4025944
8	0x3b938e36	0.004503037
9	0xbe8ffa17	-0.2812049
10	0xbdd7a340	-0.10529184
11	0x3da7d3d1	0.08194698
12	0xbeae44a1	-0.34036735
13	0xbd9475ff	-0.072490685
14	0x3e558ae8	0.2085377
15	0x3ec455f6	0.38346833
16	0x3e9c341c	0.30508506
17	0x3dd2b445	0.1028829
18	0xbea34300	-0.31887054
19	0xbed3c6eb	-0.413627
20	0x3d8c5e47	0.068539195
21	0xbdd19ab2	-0.10234584
22	0xbe209b1f	-0.15684174
23	0x3d758d1b	0.05994902
24	0xbe8b524a	-0.2721122
25	0x3e1911da	0.14948216
26	0xbf226480	-0.634346
27	0xbef2cf55	-0.47423807
28	0x3f476dd8	0.77901983
29	0xbdddb162	-0.10824849
30	0x3e26b899	0.16281356
31	0xbd3a2089	-0.045441184
32	0x3f54bbf2	0.8309928
33	0xbf02d74e	-0.5110978
34	0x3d516814	0.051124647
35	0x3ea5cfad	0.32385007
36	0x3d50cb58	0.050975174
37	0x3d9843c2	0.07434799
38	0x3ee80a6c	0.4532045
39	0x3e3c438b	0.1838514
40	0xbe98649f	-0.29764268
41	0xbec920b5	-0.39282766
42	0xbe4a4e5f	-0.19756459
43	0xbed740e2	-0.4204169
44	0x3e8051fe	0.25062555
45	0x3ef34548	0.47513795
46	0xbec27be4	-0.37985146
47	0xbb40b70c	-0.002940598
48	0x3f1372a8	0.57596827
49	0x3e0ab4b1	0.13545491
50	0xbe8593f7	-0.2608945
51	0xbe58bee6	-0.21166572
52	0xbf06bad7	-0.52628845
53	0xbec650c2	-0.38733488
54	0x3ef02238	0.46901107
55	0x3e170c65	0.14750822
56	0x3d4d3b55	0.05010541
57	0x3ea51483	0.32242212
58	0x3f33f939	0.7030216
59	0xbefc2346	-0.49245661
60	0xbddc9493	-0.10770526
61	0x3f0acda5	0.5422004
62	0xbe449677	-0.19198023
63	0xbd86f525	-0.06589726
64	0x3e2fb1b6	0.17157635
65	0x3d865699	0.06559486
66	0xbd88eb25	-0.06685475
67	0xbe299282	-0.16559795
68	0xbe73847a	-0.23781005
69	0xbe1aeef5	-0.15130217
70	0x3ed23719	0.4105766
71	0x3f31c97e	0.6944808
72	0xbe0cf307	-0.13764583
73	0xbe8bd56d	-0.27311268
74	0x3ed9f14f	0.42566916
75	0xbd62bcee	-0.05535596
76	0xbddc91ae	-0.10769974
77	0x3d69cd1a	0.057080366
78	0x3f7cfe10	0.9882517
79	0x3f81e63a	1.0148385
80	0xbf6e9583	-0.93196887
81	0x3e1b0b03	0.1514092
82	0xbbb83ea2	-0.005622701
83	0x3f2dbe1e	0.6786822
84	0xbfa267ce	-1.2687929
85	0x3f24bc6d	0.64350015
86	0xbdf98e61	-0.1218536
87	0xbf269fc2	-0.6508752
88	0x3f4c11a7	0.79714435
89	0x3ef4bf31	0.47802117
90	0x3d7f34db	0.062306266
91	0xbf445c5f	-0.7670345
92	0x3d2f5403	0.04280473
93	0x3d0e49ed	0.03473847
94	0x3d26e4a4	0.040745392
95	0x3e37457e	0.17897603
96	0xbeebe134	-0.46070254
97	0xbf01286f	-0.5045232
98	0x3ed1417f	0.40870282
99	0x3f2498dc	0.64295745
100	0xbdbfbde7	-0.09362393
101	0xbf0f983a	-0.56091654
102	0x3f8e58ce	1.1120851
103	0x3f4d6a5a	0.80240405
104	0x3f15dae4	0.58537126
105	0x3f8ac3c0	1.0840988
106	0xbef47739	-0.4774721
107	0x3e7821b0	0.24231601
108	0x3d0ce49f	0.034397718
109	0x3f868940	1.0510635
110	0xbfa66f58	-1.300273
111	0x3e906da0	0.28208637
112	0xbe157251	-0.1459439
113	0xbf50d38e	-0.81572807
114	0x3f4e2134	0.80519414
115	0x3ee12a36	0.43977517
116	0x3ebc9256	0.36830395
117	0xbf5de10e	-0.8667153
118	0xbc4d1f38	-0.01251965
119	0xbea0501c	-0.3131112
120	0xbe821042	-0.2540303
121	0x3ebaf9d4	0.3651873
122	0xbea95149	-0.33069828
123	0x3e373329	0.1789061
124	0x3f0a2584	0.53963494
125	0x3ef6cd9d	0.48203745
126	0x3e1622af	0.14661668
127	0xbf37ecad	-0.71845514
128	0x3fb1bed2	1.3886359
129	0x3f5fbf6d	0.8740147
130	0x3f98fdea	1.1952488
131	0x3f7915b1	0.97298723
132	0xbf7322d3	-0.9497501
133	0x3e703192	0.2345641
134	0x3e362d19	0.17790641
135	0x3eec65ba	0.4617136
136	0xbfb483d9	-1.4102737
137	0x3f367db1	0.7128554
138	0xbbc1e02d	-0.0059166164
139	0xbf7a6af7	-0.97819465
140	0x3f44f661	0.76938444
141	0x3e37f788	0.1796552
142	0xbe0604ba	-0.1308774
143	0xbf34fa10	-0.70694065
144	0x3e8a54a5	0.27017704
145	0x3d6871d4	0.05674918
146	0x3d386dd3	0.04502661
147	0x3e733990	0.23752427
148	0xbe91375d	-0.2836255
149	0xbf2c7468	-0.6736512
150	0x3f30571d	0.68882924
151	0x3f2cd3df	0.6751079
152	0xbe853e2d	-0.26024
153	0xbee67b8c	-0.45016134
154	0x3f5990df	0.8498668
155	0x3ecb9d22	0.3976832
156	0x3f36d760	0.71422386
157	0x3f544cad	0.829295
158	0xbf1f22a4	-0.6216223
159	0x3d845607	0.06461721
160	0x3da69e58	0.081356704
161	0x3f0ea10f	0.55714506
162	0xbf958d66	-1.1683776
163	0x3e5978dd	0.21237512
164	0x3d57c588	0.052678615
165	0xbf53c832	-0.8272735
166	0x3f613635	0.8797334
167	0x3e615a68	0.22007143
168	0xbc3650a2	-0.011127623
169	0xbf328154	-0.6972859
170	0x3eaf4300	0.34230804
171	0xbd974a26	-0.073871896
172	0xbe8d6f7e	-0.27624124
173	0x3e144015	0.1447757
174	0xbe6d7461	-0.23188926
175	0xbd859af3	-0.06523695
176	0x3f2d0f5f	0.6760158
177	0x3f1f5e3a	0.62253153
178	0xbe6fde7d	-0.23424716
179	0xbee2ec90	-0.44321108
180	0x3fa57590	1.2926502
181	0x3f1a9c27	0.6039452
182	0x3ea983d9	0.33108404
183	0x3eacb107	0.3372881
184	0xbe308e29	-0.1724173
185	0x3d309b00	0.04311657
186	0xbd7f9037	-0.062393393
187	0x3eb36274	0.3503605
188	0xbe83e631	-0.2576156
189	0xbdd3d1bf	-0.1034274
190	0x3dcdbecb	0.100461565
191	0xbd8e9d14	-0.06963554
192	0x3ea95335	0.33071294
193	0xbe1a0522	-0.1504102
194	0xbdfbb245	-0.122898616
195	0xbe993420	-0.2992258
196	0xbde7e318	-0.113226116
197	0x3da59e60	0.08086848
198	0x3e0014f9	0.12508
199	0x3e38a836	0.18032917
200	0xbe0f0a6a	-0.13968816
201	0x3d56cfbd	0.05244421
202	0x3e121b88	0.14268315
203	0x3e656a57	0.22403847
204	0xbe7550e5	-0.2395664
205	0xbe155194	-0.14581901
206	0x3e6f7fcd	0.23388596
207	0x3e9b8d2c	0.30381143
208	0xbec1d51f	-0.3785791
209	0xbef1bfbd	-0.47216597
210	0x3e850792	0.25982338
211	0xbdf22e12	-0.118251935
212	0x3e1dbb3c	0.15403455
213	0xbeed15e0	-0.46305752
214	0x3f2477cb	0.6424529
215	0xbe53c96d	-0.20682307
216	0xbb16cfa5	-0.002301195
217	0x3e38ba16	0.18039736
218	0xbea437c6	-0.32073802
219	0xbe7dc265	-0.24781187
220	0x3d5b71ef	0.053575452
221	0x3e92af1c	0.28649223
222	0xbe0822c3	-0.1329451
223	0x3e6cd59d	0.23128362
224	0x3e401bd9	0.18760623
225	0xbe4ce9bd	-0.20011039
226	0x3e51300e	0.20428488
227	0x3df7593d	0.12077568
228	0xbd90efc7	-0.07076984
229	0xbe2ef7d0	-0.1708672
230	0x3e11aa09	0.1422502
231	0x3e27ddff	0.16393279
232	0xbef43c3c	-0.47702205
233	0xbe6b5eab	-0.22985332
234	0xbecc86cc	-0.39946592
235	0xbe728e2b	-0.23687045
236	0x3f094e11	0.53634745
237	0x3e1e12cd	0.1543686
238	0xbcdf4904	-0.027256496
239	0x3d81cf0f	0.063383214
240	0x3eaa27ff	0.3323364
241	0xbebd2440	-0.3694172
242	0x3d0a3d81	0.03375006
243	0x3e8cc762	0.27495867
244	0xbcc64f99	-0.024207877
245	0x3d3bec49	0.045879636
246	0x3ea9befa	0.33153516
247	0x3de4027f	0.111332886
248	0xbba798b3	-0.0051146387
249	0xbee622a7	-0.44948313
250	0xbe0aa5bf	-0.1353979
251	0xbdf00392	-0.11719431
252	0x3e2a646c	0.1663987
253	0x3f1761ab	0.59133404
254	0xbeb37f3c	-0.3505801
255	0xbe717d67	-0.23582993

hid2.bias f4 [26]
0	0xbe15925d	-0.14606614
1	0x3d8beb05	0.06831936
2	0xbd7cc5a7	-0.061711933
3	0x3db788fd	0.08961675
4	0x3e738d06	0.23784265
5	0x3c0bc306	0.008530384
6	0x3da47fe0	0.08032203
7	0xbe217111	-0.15765788
8	0xbe49d7cd	-0.19711228
9	0x3c9db0f6	0.01924942
10	0xbdc8c6fa	-0.09803577
11	0xbddecfc5	-0.10879473
12	0x3e822b46	0.2542364
13	0xbe46109e	-0.19342276
14	0xbdb142a7	-0.08655291
15	0x3ce18e90	0.0275338
16	0x3cb3eb32	0.021962736
17	0xbd909955	-0.07060496
18	0xbd3dcbd2	-0.046336956
19	0x3e3539ee	0.1769788
20	0x3d7c5d2a	0.061612286
21	0xba580327	-0.0008240216
22	0xbe0ee153	-0.13953142
23	0xbdc94738	-0.09828037
24	0xbe7ac09c	-0.24487537
25	0xbe0e4e44	-0.13897043

f.weight f4 [3, 26]
0	0xbd53ec09	-0.051738773
1	0x3f87e131	1.0615598
2	0x3f660f2f	0.8986692
3	0xc02c367c	-2.6908255
4	0xc03e14dc	-2.9700232
5	0xc0223493	-2.5344589
6	0xc01db8fe	-2.464416
7	0xbf01404e	-0.50488746
8	0x3f910ba4	1.1331677
9	0x3eff9491	0.49918035
10	0x3f01799e	0.505762
11	0x3ebdd0b3	0.37073287
12	0x3ecf2867	0.40460512
13	0xbe7c8cb7	-0.24663053
14	0xbf7a4b42	-0.97771084
15	0x3ff3fbf2	1.9061263
16	0xc04bef38	-3.1864758
17	0x3f175904	0.591202
18	0xbf762b53	-0.9615986
19	0x3f42a732	0.7603637
20	0xc00b95ce	-2.1810184
21	0x3fb0755c	1.3785815
22	0x3fe146d9	1.7599746
23	0x3f8baf38	1.0912848
24	0x401ccedf	2.4501264
25	0x3fc50b09	1.5393993
26	0x3f1c594c	0.61073756
27	0xbfe9a114	-1.8252282
28	0xbfba8799	-1.4572631
29	0x3faf25b0	1.3683376
30	0x3efc4387	0.4927027
31	0x3fecf635	1.8512636
32	0x3f6f7966	0.93544614
33	0x3eac04a3	0.33597288
34	0xbf488f09	-0.78343254
35	0xbfa721aa	-1.3057148
36	0x3c683cad	0.0141746225
37	0xbf62d36d	-0.8860386
38	0x3fe5097f	1.7893523
39	0xbf97267a	-1.1808617
40	0xbfad3872	-1.3532851
41	0xbf0f6cc5	-0.56025344
42	0x4025cf27	2.5907686
43	0xbf83de53	-1.0302223
44	0x3f0ed664	0.55795884
45	0x3ebd4d8f	0.36973235
46	0x3f9b568d	1.2135788
47	0x3e913e11	0.28367665
48	0xc013b004	-2.3076181
49	0xbf2349f7	-0.63784736
50	0xbf71bbb7	-0.94427055
51	0x3fdd166b	1.7272466
52	0xbf02e096	-0.5112394
53	0x3ef9fbae	0.4882483
54	0x3f3bb1fa	0.73318446
55	0x3f91e1a0	1.139698
56	0x401c19d1	2.4390757
57	0x3f56476e	0.83702743
58	0x3fb60d89	1.4222881
59	0x3f0beccb	0.5465819
60	0xbefb64ed	-0.49100438
61	0x3f48b9ab	0.78408307
62	0xbeb31afb	-0.34981522
63	0x3eff19d9	0.49824408
64	0xc002a2be	-2.041183
65	0x3faf6aa3	1.3704418
66	0x40027ac6	2.0387435
67	0xbf9d6060	-1.2295036
68	0x3ee18e59	0.44053915
69	0x3f230716	0.6368269
70	0x3ef37816	0.47552556
71	0xbf98846e	-1.1915414
72	0x3f8c353d	1.0953747
73	0xbfb4f5c9	-1.4137508
74	0x3ec592b4	0.38588488
75	0xbf02941c	-0.51007247
76	0xbfb0f4a1	-1.3824655
77	0xc04c2673	-3.1898468

f.bias f4 [3]
0	0x3de915e4	0.113811284
1	0xbf248573	-0.6426613
2	0x3eb93964	0.36176598
