Regression/model_regression.pkl (torch, 9679 bytes, 7 tensors)

hid1.weight f4 [26, 13]
0	0x4021f5b9	2.5306227
1	0x4054f969	3.3277228
2	0xc06ca53f	-3.6975858
3	0xbe52647e	-0.20546147
4	0xc0145294	-2.3175402
5	0xc02307b7	-2.5473459
6	0x3ffc576e	1.9714181
7	0xbe3eeaa1	-0.18644191
8	0xbfd00c98	-1.6253843
9	0x401210eb	2.2822826
10	0xbf296504	-0.6616976
11	0xbfd2b290	-1.6460743
12	0x407433ab	3.8156536
13	0xbe47f7da	-0.19528142
14	0x3f8f7bb4	1.1209626
15	0x40221c58	2.53298
16	0xbee7541f	-0.45181367
17	0xc098d76a	-4.7762957
18	0xc02a4043	-2.6601722
19	0xbfb0129f	-1.3755683
20	0x3f52a5d4	0.82284284
21	0xbf4f6c95	-0.8102506
22	0x40530a4d	3.2975037
23	0xbf9a1871	-1.2038709
24	0xc004da93	-2.0758407
25	0x4035315b	2.8311374
26	0xc0855657	-4.1667895
27	0x3e5df9f7	0.21677385
28	0xbf3b2a1a	-0.73111117
29	0xbffe9cf1	-1.9891645
30	0x3fc8fbdc	1.5701861
31	0x3fb9dd8d	1.4520737
32	0xc0241be5	-2.5642025
33	0xc07a1c8f	-3.907993
34	0x4059b377	3.4015787
35	0xbf25551f	-0.6458301
36	0x3f2af8a1	0.6678563
37	0x40331ee3	2.7987602
38	0xbff7275b	-1.9308885
39	0xbf809559	-1.0045577
40	0xbf0b6dcb	-0.54464406
41	0xc008e448	-2.1389332
42	0x407a4010	3.91016
43	0xc05103e0	-3.2658615
44	0xbd57a2a9	-0.05264536
45	0xc00cd3c4	-2.2004251
46	0xc0aeb093	-5.4590545
47	0x3f385763	0.7200834
48	0xc10878fc	-8.529537
49	0xc082a282	-4.0823374
50	0x408930f2	4.287225
51	0x410f9827	8.974647
52	0xbd2aaa4b	-0.04166631
53	0x3f9a76c0	1.206749
54	0xbe0d2a05	-0.1378556
55	0xbf2d53d9	-0.67706066
56	0xc0aba2ac	-5.3636074
57	0x402b7a70	2.679348
58	0xc046bf45	-3.1054242
59	0xc04d9ba7	-3.2126253
60	0xc015cd35	-2.3406498
61	0x3f91edff	1.1400756
62	0x3ee6ede9	0.45103386
63	0x40687073	3.6318634
64	0xbe9957e0	-0.29949856
65	0xbdceca81	-0.10097218
66	0xc09eb4e4	-4.9595814
67	0xc04d9704	-3.2123423
68	0x3fa0ac31	1.2552549
69	0xc03ff2ab	-2.9991863
70	0x3fd99a19	1.7000152
71	0x3f877ce5	1.058499
72	0x410c79be	8.779722
73	0x3fab5438	1.3385077
74	0xc06b9e1e	-3.6815257
75	0x3e9182fa	0.2842024
76	0xc03ab151	-2.9170725
77	0xc0f94104	-7.7891865
78	0xbc69edbd	-0.014277873
79	0xbf899075	-1.074721
80	0x40235fd5	2.5527241
81	0x3f29d558	0.6634116
82	0xbe648b3d	-0.2231874
83	0x400908ed	2.1411698
84	0xc05aafe1	-3.4169848
85	0xbee24ca8	-0.4419911
86	0x3f43dbed	0.76507455
87	0xc00516d8	-2.0795193
88	0xbf8dd30f	-1.1080035
89	0x3fac2096	1.3447444
90	0xbfd05c6e	-1.6278207
91	0xbf4f6df5	-0.81027156
92	0xbfa47915	-1.2849451
93	0x404bc855	3.1841023
94	0xc01b14f2	-2.4231534
95	0xc0aec4dc	-5.4615307
96	0xc034eb97	-2.8268793
97	0xc0a8d6e2	-5.276231
98	0x3eca92f9	0.39565256
99	0x3fa97f78	1.3242025
100	0x3fdffdd2	1.7499335
101	0xc023b4b4	-2.5579042
102	0x3fd34b9d	1.650745
103	0xbf8ba603	-1.0910038
104	0xbfc1948f	-1.5123461
105	0xbef527c8	-0.47881913
106	0x3e5caa9b	0.21549456
107	0x3cef8936	0.029240232
108	0x3dee9718	0.116499126
109	0x403d7922	2.9605184
110	0xc0c53349	-6.1625104
111	0xc0865294	-4.1975803
112	0x4066d7a9	3.6069129
113	0x401a6591	2.4124491
114	0x3f88afaf	1.0678614
115	0xc0889fbf	-4.2695003
116	0x406ddfd5	3.7167866
117	0x3fc20c5a	1.5160019
118	0xbfd96328	-1.6983385
119	0xc008c22a	-2.1368508
120	0xbf5e7246	-0.8689312
121	0xc13f850f	-11.969985
122	0xc0fc93a7	-7.893024
123	0x40e0cf64	7.025316
124	0xc139ecd1	-11.6203165
125	0x40f15386	7.5414457
126	0xbfb48d34	-1.4105592
127	0x4041fe09	3.03113
128	0xbe11b81a	-0.14230385
129	0xbf1b1778	-0.60582685
130	0x402110d3	2.5166519
131	0xc08b3fe5	-4.3515496
132	0xbf4f7bee	-0.81048477
133	0x400dbda5	2.2147
134	0x3ff7b926	1.9353378
135	0x40847438	4.139187
136	0x3fb98043	1.4492267
137	0xbeb57270	-0.3543887
138	0x40326f97	2.788061
139	0xc02bd102	-2.6846318
140	0x3cc87ea1	0.024474444
141	0x3f654c13	0.89569205
142	0x41267773	10.404162
143	0x40c8b155	6.271647
144	0x3ff1565b	1.8854479
145	0x3f051429	0.51983887
146	0xbfdb537c	-1.7134852
147	0xc0861e3e	-4.1911917
148	0x400d145b	2.2043674
149	0x40b014f2	5.502557
150	0x409eca0d	4.9621644
151	0x3ef5394b	0.47895274
152	0x4061896a	3.524012
153	0xc0590b20	-3.391304
154	0x3fa7053e	1.3048475
155	0xc06ffc8f	-3.74979
156	0xc05eb917	-3.480047
157	0x4053b4a6	3.307901
158	0x409211b9	4.5646634
159	0xbf8b0a8e	-1.0862596
160	0x3f8395dd	1.028011
161	0x411e5b83	9.897342
162	0xbefa9b34	-0.48946536
163	0xbf676802	-0.9039308
164	0xc01ddb9a	-2.4665284
165	0x40d52978	6.661312
166	0xc0cd61c7	-6.4181857
167	0xc0871b0c	-4.2220516
168	0xc04e986c	-3.228053
169	0xbfc631cf	-1.548395
170	0x3f839ec2	1.0282824
171	0xbf9a8ba1	-1.2073861
172	0xbf9925ae	-1.1964624
173	0xbf7272b3	-0.9470627
174	0x3e9e89c7	0.3096449
175	0xc0c20113	-6.062631
176	0x3f0806f1	0.5313559
177	0xbeba50c7	-0.36389753
178	0xc0760fce	-3.8447146
179	0xc0468fea	-3.1025338
180	0x400b2643	2.1742103
181	0xbf90ec4f	-1.1322116
182	0xc01a65a8	-2.4124546
183	0xc078f5ca	-3.8900018
184	0xc0cf63ea	-6.4809465
185	0xc019105c	-2.3916235
186	0xc02ab84b	-2.6674984
187	0x414ec317	12.922629
188	0xc0052848	-2.0805836
189	0x3ff8dadc	1.944179
190	0xbd82597f	-0.06364726
191	0x40085db9	2.1307204
192	0xc1097bad	-8.592694
193	0xbede55fc	-0.43424976
194	0x40719896	3.774938
195	0x40e3c353	7.1175933
196	0xbfa6c8f5	-1.3030077
197	0x3f94a3b7	1.1612462
198	0xbd551cf4	-0.052029565
199	0xc06214ce	-3.5325198
200	0x3fa39416	1.2779567
201	0xc0714b19	-3.7702086
202	0xc02e1f42	-2.7206578
203	0x40693041	3.6435702
204	0x4009df22	2.154244
205	0x3f735c83	0.95063037
206	0xbfff1c4b	-1.9930509
207	0x3f961db4	1.1727815
208	0xbf940414	-1.1563745
209	0xc0e9db69	-7.3080335
210	0xc0eb1392	-7.346139
211	0xc084a43b	-4.1450477
212	0x4061aade	3.526054
213	0xc1437634	-12.216358
214	0x40fcf13d	7.904448
215	0x402f34f4	2.737607
216	0x3fe85891	1.8152028
217	0xc0dbed1d	-6.8726945
218	0xc0cdfa8b	-6.436834
219	0x410b3655	8.700765
220	0x4097aa58	4.739544
221	0xc004f098	-2.0771847
222	0x3fd59d1c	1.6688571
223	0x40196e91	2.3973734
224	0x40b102a9	5.5315747
225	0xc0081156	-2.126058
226	0xc023da22	-2.5601888
227	0xc02e114e	-2.7198062
228	0xc0b15612	-5.5417566
229	0x401e2a19	2.4713194
230	0xbf8ba7b5	-1.0910555
231	0xbf71b7a0	-0.94420815
232	0xbef24c6e	-0.47323936
233	0xc1166919	-9.400659
234	0xbfa66c6b	-1.3001837
235	0x404c1207	3.1886003
236	0xbfa6d4dc	-1.303371
237	0x4091a3ff	4.551269
238	0xc04a1800	-3.1577148
239	0xc0b1012c	-5.531393
240	0xc14af685	-12.685185
241	0xbf22ce3c	-0.6359594
242	0xbdc9593d	-0.09831474
243	0x40835416	4.1040144
244	0x4096b281	4.70929
245	0x40e83a38	7.257107
246	0xbfa95bc8	-1.3231134
247	0x40d6d618	6.7136345
248	0x3ff69749	1.9264919
249	0xbefd36ee	-0.4945597
250	0x3e6aecee	0.22941944
251	0xbebf314a	-0.37342292
252	0xc0242ff7	-2.5654275
253	0x3e0b7358	0.13618219
254	0xbf079ae7	-0.5297074
255	0x4031502d	2.7705185

hid1.bias f4 [26]
0	0x3e3e046b	0.18556373
1	0x3ff7b5a4	1.9352307
2	0xbff289df	-1.8948325
3	0x3f00b1ca	0.50271285
4	0xbf00920d	-0.50222856
5	0xbf12df99	-0.5737243
6	0x3c8b1c0c	0.016981147
7	0x409c0d22	4.876603
8	0xbfa51edb	-1.2900041
9	0xbf4a7e96	-0.79099405
10	0xc0c94a22	-6.2902994
11	0xc08ce213	-4.402597
12	0xc028cfc9	-2.6376822
13	0x3e07757d	0.13228412
14	0x4045f81c	3.0932684
15	0xbf3b13a0	-0.7307682
16	0xbeb3eb6c	-0.3514055
17	0x406d6b10	3.7096596
18	0x3fd2cff1	1.6469709
19	0xbf69f14f	-0.9138383
20	0x4042c4da	3.0432649
21	0xbe8001ab	-0.25001273
22	0x40c62da2	6.1930704
23	0x3f15cfa3	0.58519953
24	0xc01139aa	-2.2691445
25	0x3fce3f80	1.6113129

hid2.weight f4 [26, 26]
0	0x401c6265	2.4435055
1	0xbc651db0	-0.013984129
2	0xc0077879	-2.116728
3	0x4010b896	2.2612662
4	0x3ebd5121	0.3697596
5	0xbf3896bb	-0.72104996
6	0x3e8f1102	0.27942663
7	0x3fd251f8	1.6431265
8	0xbba19d1e	-0.00493206
9	0x3f8c712d	1.0972039
10	0x3d00f3af	0.031482395
11	0xbfabbe0b	-1.3417372
12	0xc027d379	-2.6222823
13	0xbe3e7843	-0.18600564
14	0x3fa26545	1.2687155
15	0x3fb339de	1.4002035
16	0x4007f617	2.1243951
17	0xc04fe4ff	-3.2483518
18	0x3f04ce63	0.5187742
19	0xbec3676a	-0.38164836
20	0xc096e18a	-4.7150316
21	0xc025afbc	-2.588851
22	0xc00eee68	-2.2333012
23	0x401eac72	2.4792752
24	0x3ff334d4	1.9000497
25	0xbef6aa0a	-0.48176605
26	0xbe866730	-0.262506
27	0xbf6dbe48	-0.9286847
28	0xbffe520a	-1.9868786
29	0xc00ce86b	-2.2016857
30	0xc005d74e	-2.0912662
31	0xbf06e19b	-0.52687997
32	0xbfd74972	-1.6819289
33	0xbfe74513	-1.8067955
34	0xbef30f70	-0.47472715
35	0xbf0b26c0	-0.54356
36	0x3f8ce751	1.1008092
37	0x3ee78b28	0.45223355
38	0xbf0aa31a	-0.54155123
39	0xbf064a41	-0.5245705
40	0xbfe05c3f	-1.7528151
41	0xbeb0ec76	-0.34555405
42	0x4044a251	3.072407
43	0xbe981605	-0.297043
44	0xbff420e4	-1.9072537
45	0x3e8c1b37	0.27364513
46	0xbf239561	-0.6389981
47	0x3f3ae17e	0.73000324
48	0xbf8d658f	-1.1046618
49	0xbff9f9a6	-1.9529312
50	0xbfafc155	-1.3730875
51	0x3f7db63f	0.9910621
52	0xbfc2ae9b	-1.5209535
53	0xc00c7bbb	-2.195052
54	0xbfd61463	-1.6724972
55	0x3f2d7146	0.67750967
56	0xbfed6713	-1.8547081
57	0x3f44f73d	0.76939756
58	0xbf398f0e	-0.7248391
59	0xbf246815	-0.64221317
60	0xbf5932ad	-0.8484295
61	0x412b333c	10.700008
62	0xc04c6d24	-3.1941614
63	0xc02e7ea2	-2.726479
64	0x4048c26c	3.1368666
65	0xbee2add3	-0.44273242
66	0x403364fd	2.8030388
67	0xbf82b801	-1.0212404
68	0xbfb28291	-1.3946096
69	0x40340b57	2.8131921
70	0x3eea8d2d	0.45810834
71	0x3eeacc99	0.4585922
72	0xc01b42c2	-2.4259496
73	0xbea9f133	-0.33191833
74	0xbfed20bc	-1.8525615
75	0xbff3a173	-1.9033645
76	0x40180526	2.3753142
77	0xc08b995c	-4.3624706
78	0xc007e8a7	-2.123575
79	0xbfc48b84	-1.5355077
80	0x3fb1d32d	1.3892571
81	0xbfa1cbf5	-1.2640368
82	0xbf8529d1	-1.0403386
83	0x3f6311a7	0.8869881
84	0xbe46b210	-0.19403863
85	0xc030f8ad	-2.765178
86	0xbf23308e	-0.63745964
87	0xc0047724	-2.0697718
88	0xbfc79db0	-1.5594997
89	0xbf8675ab	-1.050466
90	0x3fb2e41c	1.3975863
91	0x3ce770c5	0.028252015
92	0xc08d1391	-4.4086385
93	0xbf8f1ac8	-1.1180048
94	0x3fe9599d	1.8230473
95	0x3eff07aa	0.49810535
96	0x3e5f61ae	0.21814606
97	0xbf8e5fac	-1.1122947
98	0x3b0476d5	0.002021243
99	0xbebdb1ce	-0.37049717
100	0x3fc36065	1.5263792
101	0x3c884937	0.016636474
102	0xbeed6274	-0.46364176
103	0x3f7c2b64	0.9850371
104	0xc04da642	-3.2132726
105	0xbfba54a9	-1.4557086
106	0x3f3f7ed3	0.74802893
107	0x3ef70d03	0.48252115
108	0x400a860d	2.1644318
109	0x3faebffa	1.3652337
110	0x3fc5d194	1.5454583
111	0xbdcab892	-0.09898485
112	0x3f4b0540	0.79304886
113	0xbff762a6	-1.932698
114	0x3face174	1.3506303
115	0x3db89cb6	0.09014265
116	0x4019f50b	2.4055812
117	0x40339371	2.805874
118	0xbf12c69e	-0.57334316
119	0xbf8402c6	-1.0313346
120	0xc1386135	-11.523732
121	0xbffc4afa	-1.9710381
122	0xbfcd0c97	-1.6019467
123	0xbf8ad36a	-1.0845768
124	0xc04cf3be	-3.2023768
125	0xbff5e148	-1.9209375
126	0xc07e78e6	-3.976129
127	0xc0cda1b9	-6.4259915
128	0x40c8482b	6.2588096
129	0x4000ba3a	2.0113664
130	0x40405086	3.0049148
131	0x4019ba94	2.4020128
132	0xbffceae8	-1.9759188
133	0x3f2534d7	0.6453375
134	0x3d85f590	0.06540978
135	0xbfb906a1	-1.4455148
136	0xbfb1b776	-1.3884113
137	0x4098f7d6	4.7802534
138	0x3fa53c9f	1.2909125
139	0xbf3efeed	-0.74607736
140	0xbd8ff240	-0.070286274
141	0xc002e716	-2.0453544
142	0xbfd046bc	-1.6271586
143	0xc047f128	-3.124094
144	0xc00e7afb	-2.2262561
145	0xbe70ee63	-0.23528437
146	0xbf8ebc45	-1.1151205
147	0xbf1c1561	-0.6097012
148	0x3f74dc1c	0.9564836
149	0xbde2de52	-0.110775605
150	0xbeea7452	-0.4579187
151	0x3e3d23d8	0.18470705
152	0xbeecc28c	-0.46242177
153	0x40135be8	2.3024845
154	0xc0e3f64f	-7.123817
155	0xbfa18618	-1.2619047
156	0xbf14285a	-0.5787407
157	0xbeb99db3	-0.36253127
158	0xbe9bd5c3	-0.30436525
159	0x3eda6f92	0.42663246
160	0xbe9e63a0	-0.30935383
161	0x3f0c9a76	0.5492319
162	0xbebf3984	-0.37348568
163	0xbf349867	-0.7054505
164	0xbeb80281	-0.3593941
165	0xbe4c7cef	-0.19969533
166	0xbf576f9d	-0.84154683
167	0xbf69b1df	-0.91287035
168	0x3ca7e225	0.020493576
169	0xbe31bad4	-0.17356426
170	0x3f299124	0.6623709
171	0xbeffa0ec	-0.4992746
172	0xbfb18871	-1.3869764
173	0xbf35dc10	-0.71038914
174	0xbefe4bc6	-0.49667186
175	0xbf549610	-0.8304148
176	0xbf9f8abb	-1.2464212
177	0xbf361fe1	-0.71142393
178	0xbf933673	-1.1500992
179	0xbf6b1d22	-0.9184133
180	0x3f1bd8b8	0.6087756
181	0xbe1921db	-0.14954321
182	0xbe2b6a3a	-0.16739741
183	0xbea6fe85	-0.32616058
184	0xbee3da03	-0.44502267
185	0x3f2d5461	0.67706877
186	0xbef4a188	-0.4777949
187	0x3ef34494	0.47513258
188	0xbf138bc4	-0.5763514
189	0xbef3191f	-0.47480103
190	0xbe308b09	-0.17240538
191	0x3e86e750	0.26348352
192	0xbf370a99	-0.71500546
193	0xbf3575bf	-0.7088279
194	0x3e55439b	0.2082657
195	0xbd223945	-0.039605398
196	0x3f50c59c	0.8155153
197	0xbed9dd6f	-0.42551753
198	0xbf756562	-0.9585782
199	0xbef71d5e	-0.48264593
200	0xbf2aa5ee	-0.6665944
201	0xbee2597a	-0.4420889
202	0xbf4eb0b9	-0.8073841
203	0xbf66a19a	-0.90090334
204	0xbf9d64bf	-1.229637
205	0xbf627c6d	-0.8847111
206	0x3f4de50f	0.8042764
207	0xbe00f03c	-0.12591642
208	0xbf525175	-0.82155544
209	0x3f87a548	1.0597315
210	0xbfb1d4b2	-1.3893034
211	0x40210ac9	2.5162833
212	0x3f5eb2c6	0.86991537
213	0x40a14497	5.039623
214	0x3fee7ca5	1.8631788
215	0x3f2492ad	0.6428631
216	0xbd1a9f64	-0.037749663
217	0x3f95f7ce	1.1716249
218	0xc0dca368	-6.894947
219	0xc0540015	-3.312505
220	0x4113dcc3	9.241397
221	0xc07c8b7f	-3.9460142
222	0x40e07d4c	7.015295
223	0x3ede7259	0.43446615
224	0x3fd15d85	1.6356665
225	0xc045e275	-3.0919468
226	0xbfae9999	-1.3640624
227	0x3e437b2e	0.19089958
228	0x40016f49	2.0224173
229	0xc0a12fef	-5.0371013
230	0xbfcecc27	-1.6156052
231	0xc0bc511c	-5.884901
232	0x4030ef39	2.764601
233	0xbfb23404	-1.3922124
234	0x3eaaaf96	0.33337086
235	0x3f2db3ed	0.6785267
236	0xc0047992	-2.06992
237	0xc054409b	-3.3164432
238	0xc03085b7	-2.7581613
239	0xbf0caa7c	-0.5494764
240	0xbfa0088f	-1.2502612
241	0x3fc7f557	1.5621747
242	0x402f03ec	2.7346144
243	0xbf2dab63	-0.6783964
244	0xbf445c84	-0.7670367
245	0xc0d959ce	-6.7922125
246	0xc0537356	-3.3039145
247	0xbf12c998	-0.5733886
248	0xbf878430	-1.0587215
249	0x3dd7d140	0.10537958
250	0x40749544	3.8216105
251	0xbf3d3b92	-0.7391902
252	0xc05af73b	-3.4213398
253	0x4019479f	2.3949964
254	0xc06db760	-3.7143173
255	0xbecff37d	-0.40615454

hid2.bias f4 [26]
0	0xbfe45a67	-1.7840089
1	0xbe1b0b02	-0.15140918
2	0xbfceb582	-1.6149142
3	0x3c8ae6d5	0.016955772
4	0xbea64f8b	-0.3248256
5	0xc00a48b5	-2.1606877
6	0xbf819daf	-1.0126246
7	0xbf8d1d9d	-1.1024662
8	0xc068b4f6	-3.636045
9	0xbfb4c64e	-1.4123018
10	0x3eba6882	0.36407858
11	0xbfa89bf6	-1.3172596
12	0xc0246e28	-2.5692234
13	0xbf41b25f	-0.756628
14	0x3fa917f2	1.3210433
15	0x3fb4d062	1.4126093
16	0xbf2d0590	-0.6758661
17	0xbf225ef9	-0.63426167
18	0xc02c0037	-2.687513
19	0xbf391a6f	-0.7230596
20	0xbfbf1e86	-1.493119
21	0x3f4f9c77	0.8109812
22	0xbe5a8078	-0.2133807
23	0x3e8d8c4d	0.27646104
24	0xc021910e	-2.5244784
25	0xbf497512	-0.7869426

hid3.weight f4 [26, 26]
0	0x3e4b1313	0.19831495
1	0xbe97e690	-0.29668093
2	0x3fc64b42	1.5491717
3	0x3f410abf	0.7540702
4	0x3e867f0f	0.26268813
5	0xbf5bbb3b	-0.85832566
6	0x3c95b1ef	0.018273322
7	0xbdbe8bb7	-0.09303992
8	0xbd519eaa	-0.051176704
9	0xbf88dfe7	-1.069333
10	0xbf6835b7	-0.9070696
11	0x3cce15be	0.025156852
12	0x3cb59dec	0.02217003
13	0x3d86ebdc	0.06587955
14	0xbf6fda89	-0.93692833
15	0xbeae88f4	-0.34088862
16	0x3d073d36	0.03301736
17	0x3d911683	0.07084372
18	0xbdcb52a9	-0.099278755
19	0xbe3e81c9	-0.18604197
20	0xbfc03abc	-1.5017924
21	0xbf8b2439	-1.0870429
22	0xbeebe1f1	-0.46070817
23	0xbf4d6967	-0.80238956
24	0x3ef34a82	0.47517782
25	0x3ed3acee	0.41342872
26	0xbd550eba	-0.052015997
27	0xbf5ef49f	-0.8709201
28	0x4035089c	2.8286505
29	0x3f8114b8	1.0084448
30	0x3f589acc	0.846112
31	0xbf8b74cf	-1.0895022
32	0x3e63c70f	0.22243904
33	0x3e0592e0	0.1304431
34	0x3f958c3b	1.168342
35	0xbfb013f9	-1.3756095
36	0xbeb623a2	-0.3557406
37	0x3e761a26	0.24033412
38	0x3ee9e1bb	0.4568003
39	0xbea19543	-0.3155919
40	0xbfe3095e	-1.7737234
41	0xbc45912f	-0.01205854
42	0xbe1414ed	-0.14461108
43	0x3f211689	0.6292501
44	0x3f4ad4dd	0.79231054
45	0xbd7e8726	-0.062140606
46	0xc00ef8db	-2.233939
47	0xbf0433ab	-0.5164134
48	0xbed063f1	-0.4070125
49	0xbfa8cb39	-1.3187019
50	0x3f01f023	0.50757045
51	0x3f0850fd	0.5324858
52	0x3f7105df	0.94149584
53	0xbf014997	-0.50502914
54	0x404f6b9b	3.2409427
55	0x3f4a3304	0.78984094
56	0x3fcf7e6c	1.6210456
57	0xbf87e5bd	-1.0616986
58	0x3e969e99	0.29417875
59	0x3ea81b65	0.328334
60	0x3f9b16f2	1.2116377
61	0xbf82dc14	-1.0223413
62	0xbf4783f0	-0.77935696
63	0x3e926c64	0.2859832
64	0x3f7506e2	0.9571363
65	0xbbe98f20	-0.0071276575
66	0xbfb9c945	-1.4514548
67	0xbeca6553	-0.3953043
68	0xbe3c8e1e	-0.18413588
69	0x3f4099bc	0.7523458
70	0x3f8a8020	1.0820351
71	0xbd915ee5	-0.07098178
72	0xbfdb5ee9	-1.7138339
73	0xbf5ed8cf	-0.87049574
74	0xbeae57ee	-0.3405146
75	0xbf8f0cc5	-1.1175772
76	0x3f912f13	1.1342491
77	0x3ed71c5c	0.42013824
78	0x3edf9412	0.43667656
79	0xbed7b873	-0.4213291
80	0x402d2af2	2.7057462
81	0x3f25ae2e	0.647189
82	0x3f9196f9	1.1374198
83	0xbf482639	-0.78183323
84	0xbcc9a412	-0.024614368
85	0x3de741c4	0.11291841
86	0x3f92575f	1.1432914
87	0xbf5e1c3e	-0.86761844
88	0xbf00595f	-0.5013637
89	0x3e975784	0.29558957
90	0x3f96c0ca	1.1777585
91	0xbe4285fe	-0.18996426
92	0xbf8568f7	-1.0422658
93	0xbe8d13d1	-0.2755418
94	0xbe3e3cf1	-0.18577935
95	0x3eb32211	0.34986928
96	0x3ee17655	0.44035593
97	0xbe0862db	-0.1331896
98	0xbfb45179	-1.4087363
99	0xbf19af9b	-0.6003358
100	0xbf0b1e30	-0.5434294
101	0xbf5c450a	-0.86042845
102	0x3f67a249	0.90482
103	0x3e9de1ad	0.3083624
104	0x3d0fce69	0.035108957
105	0xbee680d1	-0.45020154
106	0x40232f70	2.5497704
107	0x3f8551ea	1.0415623
108	0x3f5b7025	0.85717994
109	0xbf85f9d3	-1.0466865
110	0x3d2b03d3	0.041751694
111	0xbd84381f	-0.06456017
112	0x3d8d0156	0.068850204
113	0xbfb46ef2	-1.4096358
114	0xbe991b8e	-0.29903835
115	0x3d38917c	0.04506062
116	0x3ddaf6a7	0.106915765
117	0xbec16628	-0.37773252
118	0xbf6fcd48	-0.9367261
119	0xbf5254a7	-0.8216042
120	0xbea82358	-0.32839465
121	0x3e586456	0.21132025
122	0xbe695041	-0.2278452
123	0xbd75d015	-0.060012896
124	0xbffc1ab9	-1.9695655
125	0xbf868bb2	-1.0511382
126	0xbe11aeaa	-0.14226785
127	0xbf83de2f	-1.030218
128	0x3e96e357	0.29470322
129	0x3f1237e9	0.5711656
130	0x3d0d8370	0.034549177
131	0xbef9744e	-0.48721546
132	0x400b883b	2.1801898
133	0x3eabada5	0.33530918
134	0x3f894f96	1.0727413
135	0xbf48d364	-0.78447556
136	0x3d08011d	0.033204187
137	0x3e1135a5	0.1418062
138	0x3eda96d9	0.42693213
139	0xbf60b508	-0.8777623
140	0xbed2ebdd	-0.41195574
141	0x3e0e205c	0.13879532
142	0x3ee74a3d	0.45173827
143	0xbcc9547e	-0.024576422
144	0xbf71a1a1	-0.9438725
145	0xbe6b734f	-0.22993205
146	0x3d8711e6	0.06595211
147	0x3ec74911	0.38922933
148	0x3eabec8e	0.33578914
149	0xbdb40b8e	-0.087912664
150	0xbfb5be73	-1.4198745
151	0xbf0e0920	-0.55482674
152	0xbeba6a44	-0.364092
153	0xbf6ed5a3	-0.93294734
154	0x3f00d32b	0.50322217
155	0x3e143610	0.14473748
156	0x3f14fbd9	0.5819679
157	0xbf019d59	-0.5063072
158	0x402fdcc4	2.7478495
159	0x3f634d23	0.88789576
160	0x3f97e451	1.1866552
161	0xbf9521fd	-1.1650997
162	0x3dd68d99	0.10476226
163	0xbd1fa7ae	-0.03897827
164	0x3f9234e0	1.1422386
165	0xbf77314a	-0.96559584
166	0xbfae3a83	-1.3611606
167	0x3e81e69b	0.2537125
168	0x3f3470e5	0.70484763
169	0xbd5bffaa	-0.053710617
170	0xbfce422c	-1.6113944
171	0xbe70542b	-0.23469608
172	0x3dcc35b9	0.09971184
173	0x3f23286c	0.63733554
174	0x3f5be335	0.85893565
175	0xbd60c384	-0.05487396
176	0xbfd3d691	-1.6549855
177	0xbf1cc851	-0.6124316
178	0xbf16a9e6	-0.58852994
179	0xbf6ed563	-0.9329435
180	0x3f66a3b9	0.9009357
181	0x3ed53602	0.41642767
182	0x3cfb0a1c	0.030644469
183	0xbea2a9c6	-0.31770152
184	0x4018e912	2.3892255
185	0x3f6ca454	0.92438245
186	0x3f3b2bb3	0.73113555
187	0xbf8abb33	-1.0838379
188	0x3dfe6193	0.124209546
189	0x3e2cd395	0.16877587
190	0x3caa03c2	0.020753745
191	0xbf99d1e0	-1.2017174
192	0xbf1ae206	-0.60501134
193	0x3e72d42a	0.23713747
194	0x3e280ddd	0.16411538
195	0xbde7feb2	-0.11327876
196	0xbf8b084e	-1.0861909
197	0xbf395abf	-0.7240409
198	0xbddacd33	-0.1068367
199	0x3e7b530c	0.24543399
200	0xbda991d0	-0.08279765
201	0xbc617617	-0.013761065
202	0xbfe38bfd	-1.7777096
203	0xbf74daee	-0.9564656
204	0xbe82bc9c	-0.25534523
205	0xbf9dba1e	-1.2322423
206	0x3ea3d80e	0.32000774
207	0x3efc9ddc	0.49339187
208	0x3e84c748	0.2593329
209	0xbeb28ef1	-0.3487468
210	0x4009b511	2.1516764
211	0x3f54ed0e	0.83174217
212	0x3f38317d	0.71950513
213	0xbf8f3ffd	-1.1191403
214	0x3e586dfc	0.21135706
215	0x3dda81a9	0.10669262
216	0x3ef9ddc5	0.4880201
217	0xbf999756	-1.1999309
218	0xbf70fde2	-0.94137394
219	0x3d1fa08f	0.03897148
220	0x3ef8016a	0.4843858
221	0xbd868ed4	-0.06570211
222	0xbf90272d	-1.1261955
223	0xbf1019af	-0.5628919
224	0x3cd019b0	0.025402874
225	0x3e8aa3d3	0.27078113
226	0x3e203a4b	0.15647237
227	0xbe968e1a	-0.2940529
228	0xbfd44139	-1.6582404
229	0xbf6e0525	-0.929766
230	0xbe77426a	-0.24146429
231	0xbf683433	-0.9070465
232	0x3ec19e73	0.378162
233	0x3f050cdb	0.5197274
234	0x3f2fc77e	0.68663776
235	0xbf2aeea6	-0.667704
236	0x402ac664	2.6683588
237	0x3fa239be	1.2673872
238	0x3fa13533	1.259436
239	0xbf87dd71	-1.0614454
240	0x3dc2a714	0.09504524
241	0x3d2408fa	0.040047623
242	0x3f9ca92a	1.2239125
243	0xbf9e4554	-1.2364907
244	0xbfcaa958	-1.583293
245	0x3e9aa9e4	0.3020774
246	0x3f35610e	0.7085122
247	0xbe2d27b2	-0.16909674
248	0xbfc5e26f	-1.5459727
249	0xbe81db35	-0.25362554
250	0xbda0831d	-0.07837508
251	0x3ee175d2	0.44035202
252	0x3f75e161	0.96047026
253	0xbe948b20	-0.29012394
254	0xbfd785a1	-1.6837655
255	0xbf6e2df5	-0.93038875

hid3.bias f4 [26]
0	0xbf6f604b	-0.93506306
1	0xbe45c29d	-0.1931252
2	0xbea43496	-0.3207137
3	0xbf955f86	-1.1669776
4	0xbf5c1fa8	-0.85985804
5	0xbf9e536d	-1.236921
6	0xbe6b0f8c	-0.2295515
7	0xbf6440ed	-0.8916157
8	0xbf4e8a21	-0.8067952
9	0xbe08a0f6	-0.13342652
10	0xbf92a7cf	-1.1457461
11	0xbf3c00ef	-0.73438925
12	0xbeccadca	-0.3997634
13	0x3e999023	0.2999278
14	0xbea43ec8	-0.32079148
15	0xbf926b1d	-1.1438938
16	0xbef04166	-0.46924895
17	0x3deacd84	0.1146498
18	0xbe2f5dcf	-0.17125629
19	0xbf011ed3	-0.5043766
20	0x3d04708b	0.03233389
21	0x3d12c9a8	0.035836846
22	0xbd5749b2	-0.052560516
23	0xbf2c8d89	-0.67403466
24	0xc02fc839	-2.7465956
25	0xbf6fd02d	-0.93677026

f.weight f4 [1, 26]
0	0x3fd57ebd	1.6679302
1	0x4038fb76	2.890348
2	0x4045d495	3.0911
3	0x4020a61d	2.5101388
4	0x402243ff	2.5354002
5	0x3ffffe42	1.9999468
6	0x4033e314	2.8107347
7	0x401da10f	2.4629552
8	0x400d5e7b	2.2088916
9	0x403f229e	2.9864879
10	0x401203b3	2.2814758
11	0x40284c40	2.629654
12	0x4043d980	3.0601501
13	0x409ffb95	4.9994607
14	0x40263083	2.596711
15	0x3f4a466e	0.7901372
16	0x401ae722	2.4203572
17	0x40819459	4.049359
18	0x4055a86d	3.338405
19	0x408f12b7	4.4710345
20	0x4089e66d	4.309378
21	0x404a7a27	3.1637056
22	0x40427d1f	3.0388868
23	0x402df164	2.7178583
24	0x40bf6348	5.9808693
25	0x3ff3aac3	1.9036487
